ms1.pth (torch, 131286 bytes, 16 tensors)

l1.weight f4 [32, 784]
0	0xbcc8194e	-0.024426129
1	0x3cf8d396	0.03037433
2	0xbc87fd2c	-0.016600214
3	0xbc4188ce	-0.011812402
4	0x3d0fc4c9	0.03509978
5	0xbcf79e31	-0.030226799
6	0x3c39abf4	0.011332501
7	0xbcfd1ec8	-0.030898467
8	0x3d08e90f	0.033425387
9	0xbcd19195	-0.025582114
10	0xbcc72b6a	-0.024312694
11	0xbc0e7a04	-0.008696083
12	0x3b8a2348	0.0042156316
13	0x3d09b359	0.033618305
14	0xbbe68c14	-0.0070357416
15	0x3cafb866	0.021450233
16	0xbd074a17	-0.033029642
17	0x3cc8863c	0.02447807
18	0x3cf50b72	0.029912684
19	0x3b872eb8	0.0041254424
20	0xbcb6644c	-0.022264622
21	0x3ceec812	0.029148135
22	0x3bdf2820	0.006810203
23	0x3cc1ff2e	0.02368125
24	0x39ea6f80	0.00044715032
25	0xbbdfa270	-0.006824784
26	0x3ce62a1e	0.028096255
27	0xbd0fbe1c	-0.03509341
28	0xbb926d64	-0.004468607
29	0x3c12cc04	0.008959774
30	0xbcb3dd4c	-0.021956109
31	0xba7a5200	-0.0009548962
32	0x3c86b8c0	0.016445518
33	0xbd4bef21	-0.049788598
34	0xbd565334	-0.052325442
35	0xbd203cf0	-0.039120615
36	0xbde0a143	-0.10968258
37	0xbdd1df56	-0.10247676
38	0xbd484641	-0.048895124
39	0xbe01d0c4	-0.12677294
40	0xbd0aa47c	-0.03384827
41	0xbdaf8db2	-0.08571948
42	0xbe50388e	-0.20334074
43	0xbe83758f	-0.25675628
44	0xbe038093	-0.12842016
45	0xbe2d195c	-0.16904205
46	0xbcc029bd	-0.023457402
47	0xbc4ae816	-0.012384435
48	0xbda26c73	-0.07930841
49	0x3c00f03a	0.0078697745
50	0x3d1239fa	0.035699822
51	0xbcfa034a	-0.030519146
52	0x3c98c098	0.018646523
53	0x3ceb7a52	0.02874485
54	0xbc19f4fc	-0.009396788
55	0x3beea930	0.0072833523
56	0x3c35e278	0.011101358
57	0x3d0018c1	0.031273607
58	0xbd4d810f	-0.050171908
59	0xbcae7284	-0.02129484
60	0xbd8db1d4	-0.06918684
61	0xbd5849d7	-0.052804794
62	0xbc2d6063	-0.010582062
63	0x3cd4be50	0.025969654
64	0xbcd89fe5	-0.026443431
65	0xbc846ec5	-0.0161661
66	0x3d9ec36d	0.07752118
67	0x3c90048a	0.01758029
68	0xbc6efdc2	-0.014586868
69	0xbd88ee45	-0.06686071
70	0xbcb0885d	-0.021549398
71	0x3d09c154	0.033631638
72	0xbc093bc1	-0.008376063
73	0x3a79f3b9	0.00095349137
74	0x3d8cfa34	0.0688366
75	0x3dded148	0.10879761
76	0x3dacac2c	0.08431277
77	0x3e6663a6	0.2249895
78	0x3e23ed6e	0.16008541
79	0x3bd373a8	0.0064529963
80	0x3d275523	0.040852677
81	0xbd34cde0	-0.04414165
82	0x3c0d9f60	0.008643955
83	0x3be53ec0	0.006996006
84	0x3cd1a7a6	0.025592636
85	0xbcc8ba7a	-0.024502981
86	0x3d8b36c7	0.06797557
87	0xbd2edd60	-0.04269159
88	0xbe0c7aaf	-0.13718675
89	0x3da5ab2d	0.0808929
90	0x3d5beebd	0.053694475
91	0x3cb7a60e	0.022418048
92	0xbe3bb981	-0.18332483
93	0xbe1898b5	-0.14902003
94	0xbd47c9a0	-0.04877627
95	0xbd0696de	-0.032858722
96	0xbd91399c	-0.07091066
97	0xbcf163ef	-0.029466597
98	0xbd30b01f	-0.043136712
99	0xbd12e8da	-0.035866596
100	0x3e020c15	0.12699921
101	0x3dfa0aaf	0.12209069
102	0xbb8e495e	-0.004342242
103	0x3d27a7e2	0.04093159
104	0xbdedada8	-0.11605388
105	0xbd5c0b71	-0.05372185
106	0xbcdbee07	-0.026846899
107	0xbda65052	-0.08120789
108	0xbb93e2e4	-0.0045131315
109	0x3d4b679f	0.049659368
110	0x3c14b0dc	0.00907537
111	0xbd11f6c6	-0.035635732
112	0xbd0b340f	-0.033985194
113	0x3c4d90f5	0.0125467675
114	0xbde354c0	-0.11100149
115	0xbe1537ed	-0.14572115
116	0xbd738f37	-0.059462752
117	0xbdaf6e36	-0.08565943
118	0xbdaf1880	-0.08549595
119	0x3db7e92a	0.089800194
120	0x3cab5752	0.020915661
121	0x3c5f5d4c	0.013633084
122	0x3c0c7620	0.008573085
123	0x3d28071d	0.04102241
124	0x3cfab8fb	0.030605784
125	0xbc7eb60c	-0.015546333
126	0x3d4b12ce	0.04957848
127	0x3d5d4e9f	0.054030057
128	0x3d6f600a	0.0584412
129	0x3d4ce8b6	0.050026618
130	0xbd333d99	-0.043759916
131	0xbd057e8d	-0.03259139
132	0x3b516072	0.0031948355
133	0xbd7a3e5f	-0.061094638
134	0xbdac077c	-0.08399865
135	0xbd72b265	-0.05925216
136	0xbdd7d8f6	-0.10539429
137	0x3d74db4e	0.059779458
138	0x3d7038e5	0.05864801
139	0xbc6772ee	-0.0141265225
140	0xbbdfa9c0	-0.0068256557
141	0xbd0cb45c	-0.03435169
142	0xbbffba71	-0.007804208
143	0xbcdc788d	-0.026912952
144	0xbda7afd0	-0.081878304
145	0xbe0a9ed9	-0.13537158
146	0xbd08b0c2	-0.033371694
147	0x3b931e1b	0.004489673
148	0x3cc4d520	0.024027407
149	0xbc025920	-0.007955819
150	0xbc9b9756	-0.018993061
151	0x3d95ebf5	0.07320396
152	0x3b6d8908	0.0036245007
153	0x3cef049f	0.029177008
154	0x3c3a634a	0.011376211
155	0x3d2da5cc	0.042394444
156	0x3bc06c2a	0.005872269
157	0x3d952c67	0.0728386
158	0x3dda383a	0.106552556
159	0xbc114169	-0.008865693
160	0xbce46568	-0.027880386
161	0x3d3e96c8	0.046530515
162	0xbb8aced3	-0.004236081
163	0xbcf6a917	-0.030109925
164	0xbe26e019	-0.16296424
165	0xbe102a6d	-0.14078684
166	0xbd28f71e	-0.041251294
167	0x3d606f63	0.054793727
168	0xbc220732	-0.009889411
169	0xbd5152e6	-0.05110445
170	0xbdb6bb49	-0.089224406
171	0xbd8d8bd9	-0.069114394
172	0x3b0bc2d7	0.002132585
173	0xbdaff15b	-0.08590957
174	0xbdc84fb7	-0.097808294
175	0xbcf88c12	-0.030340228
176	0x3ca21da4	0.019789524
177	0x3c507fac	0.012725752
178	0x3b1d437e	0.0023996527
179	0x3cd22841	0.02565396
180	0x3da9d473	0.082924746
181	0x3d7a73db	0.061145645
182	0x3dd2b2bc	0.10287997
183	0x3d2df242	0.042467363
184	0x3d11d6f5	0.03560539
185	0x3d7aae17	0.06120118
186	0x3dc97aec	0.098378986
187	0x3d958ca7	0.07302218
188	0xbd25208e	-0.04031425
189	0xbda27ef3	-0.0793437
190	0x3d81b363	0.063330434
191	0xbd82366e	-0.06358038
192	0xbda5e1ae	-0.080996856
193	0xbd7a4975	-0.06110521
194	0x3bd4e705	0.0064972662
195	0x3d2fc6e5	0.04291429
196	0xba31b740	-0.00067793205
197	0xbd1ba38f	-0.03799778
198	0xbdc4dcd3	-0.096124314
199	0xbdb67ca9	-0.08910496
200	0xbd49d0eb	-0.049271505
201	0xbc0e4a54	-0.008684713
202	0xbdbc171a	-0.09184094
203	0x3dd9742b	0.106178604
204	0xbcbafcf2	-0.022825692
205	0xbd0cf9f5	-0.034418065
206	0x3d891ea1	0.06695295
207	0x3d9eb7e4	0.07749918
208	0x3e117285	0.14203842
209	0x3e09afe3	0.13446002
210	0x3cd3f648	0.025874272
211	0xbcf2ef10	-0.02965501
212	0x3d1bca0e	0.03803449
213	0x3c87d3d2	0.016580496
214	0xbc37ccc2	-0.011218252
215	0x3d4e072e	0.050299816
216	0x3ca46d3b	0.020071616
217	0x3cb695c1	0.022288205
218	0x3daeb3d7	0.085303955
219	0xbb8ede42	-0.0043599913
220	0xbdb34c4e	-0.08754788
221	0xbd94194b	-0.07231387
222	0xbd8b5d6f	-0.068049304
223	0xbccc5999	-0.024945067
224	0x3bafecb0	0.0053687915
225	0xbcd0891c	-0.025456004
226	0xbda009b0	-0.07814348
227	0xbdc3bf3f	-0.09557962
228	0xbd8e0a4f	-0.0693556
229	0x3cccab0b	0.024983903
230	0x3caa091b	0.020756295
231	0x3d7d6689	0.061865363
232	0xbcab18df	-0.020885883
233	0x3becabfd	0.007222651
234	0x3d2b46c5	0.041815538
235	0x3def7d8b	0.11693867
236	0x3dffea80	0.12495899
237	0xbd779e97	-0.060453977
238	0xbdbe4111	-0.09289754
239	0xbddcc024	-0.107788354
240	0xbd58ad72	-0.052899785
241	0xbcc038aa	-0.02346452
242	0x3d94de05	0.07268909
243	0x3d83b188	0.06430346
244	0x3d079b14	0.03310688
245	0x3d996eee	0.07491861
246	0x3b3ab0ec	0.0028486801
247	0x3e0649e8	0.1311413
248	0x3db62768	0.08894235
249	0xbddd38fd	-0.10801885
250	0xbc9e40a0	-0.019317925
251	0xbdabfee9	-0.0839823
252	0x3d34ee27	0.044172432
253	0xbd40d6aa	-0.04707972
254	0xbd452a4f	-0.04813605
255	0xbda78870	-0.0818032

l1.bias f4 [32]
0	0x3d977cf3	0.07396879
1	0xbdb38b39	-0.08766789
2	0xbdd87709	-0.10569579
3	0x3cd714c1	0.026255013
4	0xbc0f05c7	-0.008729405
5	0x3d14c3c3	0.036319505
6	0x3caa8759	0.020816492
7	0x3e0af30c	0.13569278
8	0x3c314ba7	0.01082126
9	0xbd97a6e9	-0.074048825
10	0x3e11376c	0.14181298
11	0xbd14f007	-0.03636172
12	0x3c00890b	0.007845174
13	0x3c9bed53	0.019034063
14	0x3db9af17	0.09066599
15	0x3e08282a	0.13296571
16	0x3e30136c	0.17194909
17	0x3bc5dd27	0.0060383263
18	0xbdf631f8	-0.120212495
19	0x3daea673	0.085278414
20	0x3dc19ee9	0.09454138
21	0xbd060836	-0.032722674
22	0xbd0d9eb5	-0.034575183
23	0x3d6896b9	0.056784365
24	0xbd91f92a	-0.071276024
25	0xbb3d4273	-0.0028878718
26	0x3dd2727d	0.10275743
27	0x3d1137e0	0.035453677
28	0xbdb191b9	-0.086703725
29	0x3e1f2f60	0.15545416
30	0xbd58b391	-0.052905623
31	0x3cca96ea	0.024730165

l2.weight f4 [32, 32]
0	0xbe0c7c99	-0.13719405
1	0xbda91eda	-0.082578376
2	0xbe40ce2f	-0.18828653
3	0xbe326f59	-0.17425288
4	0x3d2d39e5	0.04229154
5	0x3ded01c6	0.11572604
6	0xbdc9441b	-0.09827443
7	0xbd15493f	-0.036446806
8	0xbeab3bd0	-0.3344407
9	0xbc821422	-0.01587874
10	0x3e45fdb4	0.19335061
11	0xbe09bc8c	-0.13450831
12	0x3d8000fa	0.06250186
13	0x3de55745	0.11198286
14	0xbe2e3583	-0.170126
15	0xbda0fb52	-0.078604355
16	0x3e1adb11	0.1512263
17	0xbe4ffeea	-0.20312086
18	0xbc5fbb70	-0.013655528
19	0x3c05e4a5	0.008172189
20	0x3e0afd2d	0.13573141
21	0x3dc90c76	0.0981683
22	0xbe715425	-0.23567255
23	0xbc06b85f	-0.008222668
24	0x3e46aa39	0.19400872
25	0x3db3a565	0.08771781
26	0x3bfdf017	0.007749568
27	0x3d8cc2e7	0.06873112
28	0xbd467a7a	-0.048456647
29	0xbdfeb7e5	-0.12437419
30	0x3ddf9dad	0.10918746
31	0x3c30e1da	0.010796035
32	0xbda3c21b	-0.07996007
33	0xbe93a29f	-0.28835008
34	0x3cb717fa	0.0223503
35	0x3e3d518a	0.18488136
36	0x3dc1fd36	0.09472124
37	0x3d7c5381	0.061603073
38	0xbbe1aad5	-0.00688682
39	0x3e094760	0.13406134
40	0x3cbdbef3	0.02316234
41	0x3d7a13e2	0.061054118
42	0x3d9a245a	0.07526465
43	0x3d21242c	0.039341137
44	0xbd5296c7	-0.051413324
45	0xbd80004a	-0.06250055
46	0x3e1bc1cd	0.15210648
47	0x3dd58016	0.10424821
48	0x3dc251bb	0.09488245
49	0xbd792789	-0.06082872
50	0x3b058c70	0.0020377897
51	0xbc59af89	-0.01328648
52	0x3e0a76c2	0.13521865
53	0x3dee2eb6	0.11630003
54	0xbe1d65dc	-0.15370888
55	0xbe756c27	-0.23967038
56	0xbd68a19b	-0.056794744
57	0xbe59f6d7	-0.21285568
58	0x3db36bcc	0.08760795
59	0x3e08b49e	0.1335015
60	0xbdb22e63	-0.08700254
61	0x3e165634	0.14681321
62	0xbe5755ae	-0.21028778
63	0xbe053a19	-0.13010444
64	0x3d82e094	0.06390491
65	0x3e1df04b	0.15423696
66	0x3e44e503	0.19227986
67	0xbbb3a6c7	-0.005482528
68	0x3ce2b126	0.027672362
69	0x3df05c41	0.11736346
70	0x3c4c4be1	0.012469263
71	0xbc14f618	-0.009091876
72	0xbe102b1b	-0.14078943
73	0xbdb1c9e3	-0.08681085
74	0x3d4f5043	0.050613653
75	0x3e10b3d6	0.14131102
76	0x3e38fe43	0.18065743
77	0x3e27ffa3	0.16406111
78	0x3df093d8	0.11746949
79	0xbd95fd93	-0.07323756
80	0xbe4acd21	-0.19804813
81	0x3e01c2bd	0.12671943
82	0xbe08b234	-0.13349229
83	0xbe98a81e	-0.29815763
84	0x3e25408e	0.16137907
85	0xbe32710f	-0.17425941
86	0xbe0e3d6a	-0.13890615
87	0x3c8546c2	0.016269092
88	0xbe0ed43e	-0.13948151
89	0xbd303d2c	-0.043027088
90	0x3e04a1fe	0.1295242
91	0x3e120293	0.14258794
92	0x3c6fd7f9	0.014638894
93	0xbddf665a	-0.10908194
94	0x3e2192f6	0.15778717
95	0x3d952b77	0.07283681
96	0x3e07d38b	0.13264291
97	0xbd2478cf	-0.040154275
98	0xbe0d2fb2	-0.13787726
99	0xbe8053c0	-0.25063896
100	0x3e4226e8	0.18960154
101	0xbd22b518	-0.039723486
102	0x3dee6f33	0.11642303
103	0x3e114066	0.14184722
104	0xbb0e3480	-0.0021698773
105	0x3d6bbe57	0.05755457
106	0xbe43e163	-0.19128947
107	0xbdad22a4	-0.08453873
108	0x3e0f45c6	0.1399146
109	0xbe19e448	-0.15028489
110	0xbe53ce8b	-0.20684259
111	0x3bb90b04	0.005647065
112	0x3e8a5b26	0.27022666
113	0xbc26ebba	-0.0101880375
114	0x3d6bbfeb	0.057556074
115	0x3e728bd7	0.23686157
116	0x3d15aad1	0.036539856
117	0xbcafef2c	-0.02147635
118	0xbc317b39	-0.010832601
119	0x3e2cfd50	0.16893506
120	0x3e37982e	0.17929146
121	0x3e0d97e3	0.13827471
122	0xbe208b9d	-0.15678258
123	0x3e344917	0.17606007
124	0xbe47d009	-0.19512953
125	0x3e3ff101	0.1874428
126	0xbdd060ae	-0.1017469
127	0x3d994423	0.07483699
128	0xbd95c3d0	-0.07312739
129	0xb90607ef	-0.00012782191
130	0x3d29801d	0.041381944
131	0xbdc619f4	-0.09672919
132	0xbc137be2	-0.009001704
133	0x3db1e3a8	0.08686
134	0x3e45617a	0.19275466
135	0xbdcc01c1	-0.09961272
136	0x3e8fcdbd	0.28086653
137	0x3d5dff94	0.054198816
138	0xbe24f17e	-0.16107747
139	0xb991b964	-0.00027794682
140	0x3d27f7b0	0.041007698
141	0xbdd5c98a	-0.10438831
142	0x3e0f4f3d	0.13995071
143	0x3daed0e8	0.085359395
144	0x3c1c8ffc	0.009555813
145	0x3d4e190c	0.050316855
146	0x3c98235f	0.018571554
147	0x3ea1c066	0.315921
148	0xbcdffed2	-0.027343187
149	0xbc7e8b87	-0.015536196
150	0x3e76739c	0.24067539
151	0xbc6e2145	-0.014534299
152	0xbe448826	-0.19192562
153	0xbd8d57d7	-0.0690152
154	0x3d727ffb	0.059204083
155	0x3e11fdf6	0.14257035
156	0xbd8e9824	-0.06962612
157	0x3e998073	0.2998081
158	0x3d80e940	0.06294489
159	0xbe282eaf	-0.16424058
160	0xbeb3a9fe	-0.3509063
161	0x3c2eb0ec	0.010662299
162	0xbd7b1f0c	-0.061308905
163	0x3b9264d1	0.0044675847
164	0x3de5e782	0.11225797
165	0xbdaf78cc	-0.08567962
166	0xbdc9fdff	-0.09862899
167	0xbde29d47	-0.110651545
168	0xbdf68019	-0.120361514
169	0xbd8fceaa	-0.0702184
170	0xbe1f308e	-0.15545866
171	0x3d319d58	0.043362945
172	0xbdedaf98	-0.116057575
173	0x3db3fd9a	0.08788605
174	0xbde940ac	-0.11389288
175	0xbca1a24a	-0.019730706
176	0xbc898634	-0.016787626
177	0x3e0f077e	0.13967702
178	0x3d31e966	0.043435477
179	0xbdf845a6	-0.121226594
180	0x3d218a97	0.03943881
181	0x3e614a0b	0.22000901
182	0xbc67b27b	-0.014141674
183	0xbe1ffd9c	-0.15624088
184	0x3c44e264	0.012016866
185	0x3ca53b4f	0.020169882
186	0xbc22fc32	-0.009947823
187	0x3e5b3f39	0.21410836
188	0xbdd28417	-0.102791004
189	0xbd86526b	-0.06558689
190	0x3e44ec5f	0.19230793
191	0xbcd62548	-0.026140824
192	0xbd1bb811	-0.038017336
193	0xbe44173c	-0.19149488
194	0xbddc95bb	-0.10770746
195	0x3da57c4a	0.08080347
196	0xbde7c332	-0.113165274
197	0xbe5513a6	-0.20808277
198	0x3e117abb	0.14206974
199	0xbe929cf0	-0.2863536
200	0x3d0b7323	0.03404535
201	0x3e201bbe	0.15635583
202	0x3d9752b5	0.07388822
203	0xbd21a305	-0.03946211
204	0xbd047cd8	-0.032345623
205	0x3d7a089c	0.061043367
206	0x3e08b8aa	0.13351694
207	0xbda8c105	-0.082399406
208	0xbe4bd962	-0.19907144
209	0x3e472e61	0.19451286
210	0xbce692cc	-0.02814617
211	0xbdab1135	-0.08352891
212	0x3e2bd85c	0.16781753
213	0xbd09cfe3	-0.03364552
214	0xbcde1163	-0.0271079
215	0x3c9f8fe8	0.0194778
216	0x3d125023	0.035720956
217	0x3cc08fe1	0.023506107
218	0x3de0992d	0.10966716
219	0x3cfdd70d	0.030986333
220	0xbda82798	-0.08210677
221	0xbd15e202	-0.03659249
222	0xbdf6ef72	-0.12057389
223	0x3d335dd2	0.043790646
224	0xbdb2dda0	-0.08733678
225	0x3d0d0c5e	0.034435622
226	0xbd92f69d	-0.07175944
227	0xbda1aa91	-0.07893861
228	0x3ea906df	0.33013055
229	0x3dbdc455	0.09265963
230	0x3ca7ddff	0.020491598
231	0xbe2fd3c6	-0.17170629
232	0xbe1d05f7	-0.15334307
233	0x3dd6bd6c	0.10485348
234	0xbc13d61a	-0.009023214
235	0x3d2379b1	0.039910976
236	0xbe0b1352	-0.13581589
237	0x3e2b614d	0.16736336
238	0xbbd680cf	-0.006546117
239	0x3c4dada5	0.012553607
240	0x3e03c4ef	0.12868093
241	0xbe42e052	-0.19030884
242	0x3c6cfde0	0.014464825
243	0x3dfec4fa	0.12439914
244	0xbd767405	-0.06016924
245	0x3df4c063	0.11950757
246	0x3d27f8ed	0.04100888
247	0xbdd42dbe	-0.10360287
248	0xbe8a7017	-0.27038643
249	0x3e529b53	0.20567064
250	0x3d2da502	0.04239369
251	0xbdc146d8	-0.094373405
252	0x3dc375ee	0.09543978
253	0xbc65208b	-0.01398481
254	0x3e5fcb1a	0.21854821
255	0x3d149f1e	0.03628456

l2.bias f4 [32]
0	0xbc984802	-0.018589024
1	0x3e556498	0.20839155
2	0x3d949f3a	0.072569326
3	0xbe3239f9	-0.17404927
4	0x3e52dc6e	0.205919
5	0x3d830219	0.063968845
6	0xbdbff80f	-0.09373485
7	0xbdc53a3d	-0.09630249
8	0x3c425a2e	0.011862321
9	0xbe59ee84	-0.21282393
10	0xbcfc7242	-0.030816201
11	0x3d56b372	0.052417226
12	0x3e54830b	0.20753114
13	0xbc101033	-0.008792925
14	0x3e0594a1	0.13044979
15	0x3d40861b	0.047002893
16	0xbdc6f665	-0.09714965
17	0xbd84b93a	-0.06480642
18	0xbd4e72e9	-0.050402556
19	0x3c69cc76	0.014269939
20	0x3e47a4e6	0.19496498
21	0x3e86aec9	0.26305225
22	0xbd6756ac	-0.05647914
23	0xbdf5a88a	-0.11995037
24	0x3e241abb	0.16025822
25	0xbc476be5	-0.01217172
26	0x3e1562fb	0.1458854
27	0xbd5da286	-0.054110073
28	0x3da04112	0.07824911
29	0xbd2c8c3e	-0.042125933
30	0xbc87ef73	-0.01659367
31	0x3d3f9aee	0.04677861

l3.weight f4 [32, 32]
0	0x3dda5aaa	0.10661824
1	0x3e3a3780	0.18185234
2	0x3e2c05f0	0.1679914
3	0xbd443652	-0.047903366
4	0x3dab1c9e	0.08355068
5	0xbca71f48	-0.020400658
6	0x3e51dd7c	0.20494646
7	0xbd658cc6	-0.056042455
8	0xbe42e505	-0.19032677
9	0xbcea95e2	-0.028635923
10	0xbdc45229	-0.09585983
11	0x3da68a6d	0.08131871
12	0x3db671c1	0.089084156
13	0x3cf3465a	0.029696632
14	0xbe1edbb4	-0.15513498
15	0xbe0d7172	-0.13812807
16	0x3e60f63e	0.21968934
17	0xbe3a8dbb	-0.18218128
18	0xbd70bbf0	-0.05877298
19	0x3e1903ca	0.14942852
20	0x3c9c7eb0	0.019103378
21	0xbabce677	-0.0014411946
22	0xbdd05230	-0.10171926
23	0xbe0b556d	-0.13606806
24	0x3e10e66a	0.14150396
25	0x3ddd439f	0.10803913
26	0x3e04321c	0.1290974
27	0x3c9b5707	0.018962396
28	0x3d33a6df	0.043860313
29	0x3c009101	0.007847072
30	0xbd806284	-0.0626879
31	0xbcf82cec	-0.030294858
32	0xbe18e38a	-0.1493055
33	0x3d3f0d62	0.046643622
34	0xbe25064a	-0.1611568
35	0x3da9ae12	0.082851544
36	0xbd199e8b	-0.037504714
37	0x3d9b5677	0.07584851
38	0x3db59fdb	0.08868381
39	0x3e4046c8	0.18777001
40	0x3db9cc96	0.09072225
41	0xbbb8a309	-0.0056346697
42	0x3e823ac9	0.25435475
43	0xbde6e180	-0.112734795
44	0xbd38aa26	-0.04508414
45	0x3e46c0aa	0.19409433
46	0x3ea0b086	0.31384677
47	0xbdb53a65	-0.088490285
48	0xbe94ecde	-0.29086965
49	0x3c46f020	0.012142211
50	0xbe72d655	-0.23714574
51	0xbda6fbb7	-0.081534795
52	0xbe647924	-0.22311836
53	0x3cb31964	0.021862693
54	0x3e01a81e	0.12661788
55	0x3ddaffdf	0.10693335
56	0x3e839e90	0.2570691
57	0xbc8ebb07	-0.017423166
58	0xbdc1fa68	-0.09471589
59	0xbcb7d61b	-0.02244096
60	0x3df46386	0.11933045
61	0x3e592591	0.21205737
62	0xbd79e7cf	-0.061012086
63	0x3e9a10c2	0.3009091
64	0x3c2702c5	0.010193531
65	0xbe161ea5	-0.14660127
66	0x3cee3464	0.029077716
67	0xbac94d6f	-0.001535816
68	0x3d8ba4d5	0.068185486
69	0xbe5324c9	-0.20619501
70	0x3d67cc67	0.056591418
71	0xbe34f41f	-0.1767125
72	0x3cde68f8	0.027149662
73	0x3d7c18b9	0.061547015
74	0xbd244594	-0.040105417
75	0x3ce98f41	0.028510692
76	0xbcfa451b	-0.03055053
77	0xbd2be816	-0.04196938
78	0x3d4cfed8	0.050047725
79	0x3ce3129a	0.02771883
80	0x3e24d89a	0.16098252
81	0xbe67a2d7	-0.22620712
82	0xbdfc6085	-0.12323097
83	0x3e19cbd1	0.15019156
84	0xbe2d9e25	-0.16954859
85	0x3c08ea9e	0.008356718
86	0x3b1e8477	0.0024187842
87	0x3e3a0f59	0.18169917
88	0x3e35a363	0.17738108
89	0x3e9b47f6	0.3032834
90	0xbe062c2c	-0.13102788
91	0xbe80b8cf	-0.25140998
92	0x3e0e91a3	0.13922743
93	0xbe31bf68	-0.17358172
94	0x3e26cd63	0.16289286
95	0x3e1bb68a	0.15206352
96	0x3dc46258	0.0958907
97	0xbe096472	-0.13417223
98	0x3e2c08e2	0.16800264
99	0x3bb13179	0.005407509
100	0xbe29a4ea	-0.16566816
101	0xbc386a37	-0.011255792
102	0x3e4f1b64	0.20225292
103	0xbdaa37f2	-0.08311452
104	0xbca95033	-0.020668125
105	0x3b51a241	0.003198758
106	0x3c018650	0.007905558
107	0xbd8dfe6d	-0.069332935
108	0x3d8b72e2	0.068090215
109	0xbce97a26	-0.028500628
110	0xbdb46071	-0.08807457
111	0x3e1a5115	0.15069993
112	0x3cff6fae	0.031181183
113	0x3daa7dea	0.083247975
114	0x3e028ead	0.12749739
115	0x3ce2bb8c	0.02767732
116	0x3dd1fd72	0.10253419
117	0xbe0eb919	-0.13937797
118	0xbe29fa6a	-0.16599432
119	0xbe0764e7	-0.13222085
120	0x3bdcf05d	0.0067425207
121	0xbe74e154	-0.23914081
122	0x3e30af8a	0.17254463
123	0xbd1c39f1	-0.038141195
124	0x3d57cf41	0.052687887
125	0x3c584246	0.013199395
126	0xbda11771	-0.07865799
127	0x3da59a90	0.08086121
128	0x3e167fa6	0.14697132
129	0xbdd28d28	-0.1028083
130	0xbcdcb426	-0.02694137
131	0x3e4c4d5b	0.19951384
132	0x3d56a588	0.052403957
133	0xbd04cec0	-0.032423735
134	0xbde0a261	-0.10968471
135	0xbbd523a6	-0.0065044938
136	0x3d773c69	0.060360346
137	0xbe1d73b3	-0.15376167
138	0xbe21008c	-0.15722865
139	0x3db2796b	0.08714565
140	0x3e66e386	0.22547731
141	0x3e38512c	0.17999715
142	0x3e09117b	0.13385575
143	0xbe4da682	-0.20083049
144	0x3c82bf76	0.015960436
145	0xbd87d5b4	-0.066325575
146	0xbd806302	-0.06268884
147	0x3d09f7c6	0.03368356
148	0x3cbbbe7f	0.022917984
149	0x3e31f841	0.17379858
150	0xbe07a2ec	-0.13245744
151	0xbe0e38bd	-0.13888831
152	0x3d89160d	0.06693659
153	0xbdf7ac03	-0.120933555
154	0xbcf56214	-0.029953994
155	0xbdab4c20	-0.08364129
156	0xbc48f913	-0.012266415
157	0xbd0350a1	-0.032059316
158	0xbcf4bd98	-0.029875562
159	0xbe08fc64	-0.1337753
160	0xbe24348a	-0.16035667
161	0xbdd70c2c	-0.105003685
162	0xbd8818e5	-0.06645373
163	0x3cbe86be	0.02325761
164	0x3d63d694	0.05562456
165	0x3d649b19	0.055811975
166	0x3daeb99d	0.08531497
167	0xbe8a8b53	-0.2705942
168	0xbe495cda	-0.19664326
169	0x3da1bc66	0.07897262
170	0xbdf6f368	-0.12058145
171	0xbe4773d8	-0.19477785
172	0xbc95e6ca	-0.018298525
173	0x3d5984cc	0.05310516
174	0x3de22c26	0.11043577
175	0x3de7d7a5	0.11320428
176	0x3cb52860	0.022113979
177	0x3e0b9bd4	0.13633662
178	0x3dcb945e	0.09940408
179	0xbd42b55d	-0.047536243
180	0x3e57e321	0.21082737
181	0xbbda8723	-0.0066689416
182	0xbd232399	-0.03982887
183	0xbc1687ed	-0.009187681
184	0x3e30c10c	0.17261142
185	0x3d0cd3bf	0.034381624
186	0xbd5ff260	-0.054674506
187	0xbe1d38bb	-0.15353672
188	0xbd9530a8	-0.07284671
189	0x3d6484ef	0.055790838
190	0xbe066cad	-0.13127394
191	0xbe5f52b6	-0.21808895
192	0x3e434f45	0.19073208
193	0x3cb4af5f	0.02205628
194	0x3d957e08	0.07299429
195	0xbd613b5d	-0.054988254
196	0xbe706dcd	-0.23479386
197	0x3df75221	0.12076212
198	0x3d742716	0.059607588
199	0xbc6a8e0c	-0.014316093
200	0x3db66867	0.08906632
201	0xbc4e791b	-0.012602116
202	0x3dc4850e	0.09595691
203	0x3e3f855d	0.18703218
204	0x3e0964e3	0.13417391
205	0xbde7535a	-0.11295195
206	0xbcdae450	-0.026720196
207	0x3e06499b	0.13114016
208	0x3d97e5be	0.07416867
209	0x3cca07fc	0.02466201
210	0xbe2dab3d	-0.16959853
211	0xbdebcc3c	-0.11513564
212	0xbd3183dc	-0.04333864
213	0xbe49873b	-0.19680493
214	0xbcc64811	-0.024204286
215	0x3d3480c5	0.044068117
216	0x3e18e35f	0.14930485
217	0xbe375ced	-0.17906542
218	0x3e42ff27	0.19042645
219	0x3e398798	0.18118131
220	0xbe16c7be	-0.14724633
221	0x3e4d8db5	0.20073588
222	0x3ce12aca	0.027486224
223	0xbdbf04ab	-0.09327062
224	0xbe1ca2dc	-0.15296501
225	0xbdd8c2b3	-0.10584011
226	0xbe4e141c	-0.20124859
227	0xbd610995	-0.05494078
228	0x3e4f324e	0.20234033
229	0x3ca2bf58	0.01986663
230	0xbe91f6ce	-0.2850861
231	0x3e170cf0	0.14751029
232	0x3e80e57f	0.25175092
233	0xbdd63a44	-0.10460332
234	0x3b1a35d6	0.0023530624
235	0xbe061901	-0.13095476
236	0xbd40e6e1	-0.047095183
237	0x3de795ea	0.11307891
238	0x3dd5ffc2	0.104491726
239	0xbe541dfe	-0.20714566
240	0x3dd70806	0.10499577
241	0xbd82cb3e	-0.063864216
242	0x3d6dbbfb	0.0580406
243	0xbc9c5777	-0.019084675
244	0xbe0975b7	-0.13423811
245	0xbe0017a0	-0.12509012
246	0x3d638b84	0.055552974
247	0xbcfc99dd	-0.030835086
248	0x3dfb2633	0.12263145
249	0x3ca71189	0.020394104
250	0xbd4891db	-0.048967224
251	0x3cf13f16	0.029449027
252	0xbd1f376a	-0.038871206
253	0xbd949fe0	-0.07257056
254	0x3e61b3d7	0.2204126
255	0xba08bee1	-0.00052164315

l3.bias f4 [32]
0	0x3e2b7cc8	0.16746819
1	0xbd9ac986	-0.07557969
2	0x3b823662	0.003973768
3	0x3db4e4e7	0.08832722
4	0x3d04d404	0.032428756
5	0xbdc639ba	-0.09678979
6	0xbda67bdc	-0.08129093
7	0xbc3dadf4	-0.011577118
8	0x3e9a2069	0.30102852
9	0xbde664ab	-0.1124967
10	0xbe17b3ae	-0.14814636
11	0x3e19ea44	0.15030771
12	0xbd4a4064	-0.049377814
13	0xbc993058	-0.01869981
14	0xbe0e6537	-0.13905798
15	0x3dc417d7	0.095748596
16	0xbcf03384	-0.02932144
17	0x3d8a5f5c	0.067564696
18	0xbe3031ab	-0.17206447
19	0xbc4e9c93	-0.012610572
20	0x3e0ff5bc	0.14058584
21	0xbca52219	-0.02015786
22	0xbd36bb4d	-0.044612218
23	0xbe570260	-0.20997
24	0x3e271f7e	0.16320607
25	0x3e87b66b	0.2650636
26	0xbd5ff644	-0.054678217
27	0x3df6c182	0.120486274
28	0x3dc16ff5	0.09445182
29	0x3e885e80	0.26634598
30	0xbd9adf9c	-0.07562181
31	0xbc761185	-0.015018825

l4.weight f4 [32, 32]
0	0xbe2a147b	-0.16609375
1	0xbd35bede	-0.04437148
2	0x3dfcfef2	0.123533145
3	0x3e0b7c21	0.1362157
4	0x3db3e881	0.08784581
5	0x3d7bed97	0.06150588
6	0x3e0b902e	0.13629219
7	0x3e3505da	0.17678013
8	0xbe83b8f8	-0.25727057
9	0xbe159e3c	-0.14611143
10	0xbdc0092b	-0.09376749
11	0xbe951e30	-0.29124594
12	0xbe0f883f	-0.14016818
13	0xbcc9baa6	-0.024625134
14	0xbc72fbd8	-0.014830552
15	0xbd38b011	-0.045089785
16	0x3ce04d9e	0.02738076
17	0xbdd382fb	-0.10327717
18	0x3c0a8c77	0.008456341
19	0xbe6c849f	-0.23097466
20	0xbd8ad59d	-0.06779025
21	0xbd526fcf	-0.05137616
22	0x3e99ef66	0.3006546
23	0xbe1eb0f8	-0.15497196
24	0xbc6eca9a	-0.014574671
25	0xbe82b578	-0.25529075
26	0xbe5418b3	-0.20712547
27	0x3e18bd7f	0.14916037
28	0x3d84cdb1	0.06484545
29	0x3cff56c1	0.031169297
30	0xbda3be54	-0.079952866
31	0x3d446fcc	0.04795818
32	0xbdbf541b	-0.09342214
33	0x3d321f32	0.04348678
34	0x3cef4ab2	0.029210422
35	0xbdff10a2	-0.12454344
36	0xbe8c5b42	-0.27413374
37	0xbcde0deb	-0.027106246
38	0x3e4225cb	0.1895973
39	0xbe0ca2b6	-0.13733944
40	0xbdd041b3	-0.10168781
41	0xbda70751	-0.08155692
42	0xbe8fa7e4	-0.28057778
43	0xbe812e97	-0.25230858
44	0xbe6463b3	-0.22303657
45	0xbe003711	-0.12521006
46	0x3e3a6e54	0.1820615
47	0xbd7acfc0	-0.061233282
48	0x3d6d2804	0.05789949
49	0x3e3d5a99	0.18491592
50	0xbdedeafe	-0.11617087
51	0x3d086056	0.033294998
52	0xbbef8de6	-0.007310617
53	0x3db9cac9	0.09071881
54	0xbe776990	-0.24161363
55	0xbc36f0d6	-0.011165818
56	0xbe3b6c5e	-0.18303058
57	0x3d90d605	0.07072071
58	0x3dd04067	0.10168534
59	0xbdeea27c	-0.11652085
60	0xba222126	-0.0006184749
61	0x3e95d67f	0.2926521
62	0xbd61ccc0	-0.055126905
63	0xbd9daca5	-0.07698945
64	0xbe1af365	-0.1513191
65	0x3db5531e	0.08853744
66	0x3e125329	0.14289536
67	0xbe1e94ed	-0.15486498
68	0x3e7d90d3	0.24762277
69	0x3c5c2b8f	0.01343812
70	0xbe2e8b54	-0.17045337
71	0x3d0c2a86	0.03422024
72	0x3d89db38	0.06731266
73	0xbc3e4252	-0.011612492
74	0x3af59f8c	0.0018739565
75	0xbd55cb1d	-0.052195657
76	0x3e9dd076	0.30823106
77	0xbd8ca28b	-0.0686694
78	0x3e0e2afb	0.13883583
79	0x3d27df58	0.04098448
80	0xbd86e050	-0.06585753
81	0xbd92b619	-0.071636386
82	0xbcbb5b03	-0.022870546
83	0x3da4234b	0.08014544
84	0xbd2c1acc	-0.042017743
85	0xbe0b1018	-0.13580358
86	0xbe226294	-0.15857917
87	0x3e3fd7fd	0.18734737
88	0xbe99a02a	-0.30005008
89	0xbd0db63c	-0.03459762
90	0xbc26c6c5	-0.010179226
91	0x3e107e1d	0.14110608
92	0x3e17a3fc	0.14808649
93	0x3d30858b	0.043096106
94	0xbca2d558	-0.01987712
95	0xbdcecbc6	-0.100974604
96	0x3d121d05	0.035672206
97	0xbe05e9af	-0.13077424
98	0x3b09a756	0.002100428
99	0x3d03a197	0.032136526
100	0xbd4615d1	-0.04836065
101	0x3da1266c	0.078686565
102	0x3d8d3b4d	0.06896076
103	0xbe069cd9	-0.1314577
104	0x3d841a3e	0.06450318
105	0x3e283b47	0.16428863
106	0xbda896ca	-0.08231886
107	0x3e232e7a	0.15935698
108	0xbe3f9791	-0.18710162
109	0x3d4e0c70	0.05030483
110	0x3dca2abd	0.09871433
111	0x3d0db041	0.034591917
112	0x3e0c49e9	0.1370007
113	0xbd108950	-0.0352872
114	0x3e233a67	0.15940247
115	0xbdfb0070	-0.12255943
116	0xbd90740b	-0.070533834
117	0x3d6b012b	0.05737416
118	0x3d93e2b3	0.07220974
119	0x3d11a950	0.03556186
120	0xbd259bdb	-0.04043184
121	0xbd8b6f63	-0.06808355
122	0xbe1b1196	-0.15143427
123	0xbe4edd93	-0.20201711
124	0x3c7e871d	0.015535143
125	0x3cfe8606	0.031069767
126	0xbd1c38c0	-0.03814006
127	0xbe722708	-0.23647702
128	0x3dfabb5c	0.12242767
129	0x3e169cb4	0.14708215
130	0xbde562c1	-0.112004764
131	0xba4fbf1b	-0.00079249
132	0x3e05c650	0.13063931
133	0x3bde4bd0	0.00678394
134	0xbe2167a4	-0.15762192
135	0xbd646b86	-0.055766605
136	0x3d3cf769	0.046134386
137	0x3e3e3325	0.18574198
138	0xbe87faed	-0.2655863
139	0xbd924dab	-0.0714372
140	0x3bd20521	0.006409303
141	0x3e18fbd4	0.14939815
142	0x3cb84044	0.022491582
143	0x3d961079	0.07327361
144	0x3dc63cff	0.09679603
145	0x3dc7a7e2	0.09748818
146	0x3e0c0e29	0.13677277
147	0xb9dda361	-0.00042274132
148	0xbe0a7f0c	-0.13525027
149	0xbe14ab19	-0.14518394
150	0x3e434fac	0.19073361
151	0xbe2a47fd	-0.16629024
152	0x3e14c9b4	0.14530069
153	0x3e2f633e	0.17127702
154	0x3d9ca011	0.07647718
155	0xbdc765a8	-0.09736186
156	0xbd88741c	-0.06662771
157	0x3daacb39	0.08339543
158	0x3c57b776	0.013166299
159	0xbc9ab25f	-0.018883882
160	0xbccf0d67	-0.025274945
161	0xbe3081e2	-0.17237046
162	0xbe41787c	-0.18893617
163	0x3d6b8784	0.057502285
164	0x3d70d397	0.058795538
165	0xbd4ce9b8	-0.05002758
166	0x3e73baa2	0.23801664
167	0xbd141d0f	-0.036160525
168	0x3e2f6900	0.17129898
169	0xbd551d5b	-0.05202995
170	0xbce437c5	-0.027858624
171	0x3d59f744	0.053214327
172	0xbdf56294	-0.11981693
173	0x3dbe887f	0.09303378
174	0xbdbb15cc	-0.09135017
175	0xbd0371b6	-0.032090865
176	0x3dd16d21	0.10225893
177	0x3e5c0e61	0.2148986
178	0xbc51e7f5	-0.0128116505
179	0xbbe0a7e1	-0.00685595
180	0x3d4f1587	0.05055764
181	0x3de961ef	0.113956325
182	0xbdf39d36	-0.1189522
183	0x3da1c97d	0.07899759
184	0x3d34c33c	0.044131503
185	0x3d9739af	0.07384049
186	0xbe233a7c	-0.15940279
187	0x3da7d524	0.0819495
188	0x3e42493b	0.18973248
189	0x3e28434c	0.16431922
190	0xbcdda513	-0.027056253
191	0xbadf4d14	-0.0017036521
192	0xbd53a395	-0.051669676
193	0xbe02c83b	-0.12771694
194	0xbe4729e9	-0.19449581
195	0xbce0b4c6	-0.02742995
196	0xbe29ff08	-0.16601193
197	0xbe2d4d23	-0.16923957
198	0x3e3bd411	0.18342616
199	0x3d0a0fbd	0.033706415
200	0x3e17155d	0.14754243
201	0x3da64b6e	0.08119856
202	0x3da92146	0.082582995
203	0x3dc9d7a6	0.09855585
204	0xbd10a315	-0.035311777
205	0x3e36e24a	0.1785976
206	0x3dde50e4	0.108552724
207	0x3de2271a	0.11042614
208	0xbd118627	-0.03552833
209	0xbdabe7f7	-0.08393853
210	0x3e12b801	0.14328004
211	0xbdde2c1a	-0.108482555
212	0xbc9b9f44	-0.018996842
213	0x3d4a5316	0.049395643
214	0x3e20a7d0	0.15689015
215	0x3e14cc2a	0.14531007
216	0xbd805e31	-0.062679656
217	0xbe03a440	-0.12855625
218	0x3cd299a8	0.025708035
219	0x3c57c379	0.013169163
220	0xbca8e5bc	-0.020617358
221	0x3d830fd6	0.06399505
222	0xbd10c6a7	-0.0353457
223	0x3ca092c7	0.019601239
224	0xbc464721	-0.012101919
225	0xbcebc821	-0.028781952
226	0xbd5f2021	-0.054474
227	0x3e164115	0.14673264
228	0xbd3bbaa8	-0.045832306
229	0x3c97381c	0.018459372
230	0xbdf8b24f	-0.12143385
231	0xbcbf616d	-0.023361886
232	0xbd5f6d64	-0.054547682
233	0xbe0d6271	-0.13807084
234	0xbc23ac1e	-0.009989766
235	0xbe1d3661	-0.15352775
236	0xbccc4963	-0.024937337
237	0xbe366c16	-0.17814669
238	0xbe2f37b3	-0.17111091
239	0x3d50cfde	0.050979488
240	0x3e3aa8b3	0.18228416
241	0x3e428046	0.18994245
242	0xbccf896e	-0.025334086
243	0x3d861c8f	0.06548416
244	0x3df95fae	0.121764526
245	0xbdbacb5b	-0.09120818
246	0x3e30497d	0.17215534
247	0x3de2af09	0.110685416
248	0xbd8ffea7	-0.07030993
249	0xbe4f1041	-0.20221044
250	0xbddf7382	-0.10910703
251	0x3e0f995b	0.14023344
252	0x3dd724db	0.105050765
253	0x3e0306f1	0.12795617
254	0xbd6ec649	-0.05829457
255	0xbd698780	-0.05701399

l4.bias f4 [32]
0	0x3d1906ac	0.03735988
1	0xbdc0a5fd	-0.0940666
2	0xbe23445b	-0.15944044
3	0xbe48dd5b	-0.1961569
4	0xbcfa02db	-0.03051894
5	0x3c198ee6	0.009372449
6	0x3ced139b	0.028940013
7	0x3e0395d5	0.12850125
8	0x3e861955	0.26191202
9	0x3df5e905	0.120073356
10	0xbe2d13b4	-0.16902047
11	0x3d9dac69	0.076989
12	0xbdf2f31b	-0.11862775
13	0x3e6f56fa	0.23373023
14	0x3deeca69	0.116597004
15	0x3e88f2b0	0.26747656
16	0xbe4b5b71	-0.19859101
17	0xbe58a2f3	-0.2115591
18	0xbe209cac	-0.15684766
19	0x3dd03ab7	0.10167449
20	0xbce65d6c	-0.028120719
21	0x3ec07520	0.3758936
22	0x3ca88af0	0.020574063
23	0x3e611643	0.21981148
24	0xbdae8151	-0.08520759
25	0x3dc9692f	0.09834515
26	0x3daa3537	0.08310931
27	0xb9a91fe0	-0.0003225794
28	0xbe8c8eb9	-0.2745264
29	0x3d694bf6	0.056957208
30	0xbda0d052	-0.07852234
31	0x3dad157b	0.08451363

l5.weight f4 [32, 32]
0	0x3c42a558	0.011880241
1	0x3d786b7a	0.060649373
2	0xbd1a2843	-0.037636053
3	0xbe3ba1d2	-0.18323448
4	0x3d73794b	0.059441846
5	0x3dec1324	0.11527088
6	0xbdfe9a19	-0.124317355
7	0xbd7eaeb1	-0.062178317
8	0xbe0702a4	-0.13184601
9	0xbd76ab35	-0.06022187
10	0xbe524e74	-0.2053774
11	0xbe15636c	-0.14588708
12	0x3c1fd11f	0.009754448
13	0xbdab507c	-0.083649606
14	0x3ddf46ea	0.10902198
15	0x3e18953c	0.14900678
16	0x3d94abe3	0.07259347
17	0xbc60bd60	-0.0137170255
18	0x3ba89d60	0.0051457137
19	0xbdc870a8	-0.097871125
20	0xbe1fc7b7	-0.15603529
21	0x3e1b027b	0.15137665
22	0xbc76e3ee	-0.015068991
23	0x3d4bce9a	0.049757577
24	0xbe46a8be	-0.19400308
25	0xbe1321cf	-0.14368366
26	0xbd292ed2	-0.041304417
27	0xbe6e5581	-0.23274805
28	0xbe80093e	-0.2500705
29	0xbe5f707f	-0.21820258
30	0xbe10b436	-0.14131245
31	0x3da32f5f	0.0796802
32	0x3d91da2d	0.07121692
33	0x3da11641	0.07865573
34	0xbdf22ef7	-0.11825364
35	0xbd98195a	-0.074267104
36	0x3caae106	0.020859253
37	0xbe46f39c	-0.19428867
38	0xbe131c2e	-0.14366218
39	0xbe367f14	-0.17821914
40	0xbd98bde7	-0.07458096
41	0xbdf9cdaa	-0.121974304
42	0xbe41360d	-0.18868275
43	0x3e1cd41e	0.15315291
44	0x3d608fcf	0.054824647
45	0x3ddcf4a2	0.107888475
46	0xbb0aff0d	-0.002120915
47	0xbda2d528	-0.079508126
48	0x3b307769	0.0026926643
49	0x3dc0456e	0.09388243
50	0x3dd2c33a	0.10291143
51	0x3d436a2e	0.047708683
52	0xbd80ec6a	-0.062950924
53	0x3e86d8a9	0.26337174
54	0x3e1a7701	0.15084459
55	0xbe5439f6	-0.20725235
56	0x3d26a707	0.040686633
57	0xbe89ec2a	-0.2693799
58	0xbe0f5ecc	-0.14001006
59	0xbddbdbbd	-0.10735271
60	0xbdd1337b	-0.10214897
61	0x3c80af43	0.015708571
62	0x3dde0409	0.108406134
63	0x3d24dd14	0.0402499
64	0x3e00e0cc	0.12585753
65	0xbd935a50	-0.0719496
66	0xbe403efe	-0.1877403
67	0xba753e71	-0.0009355313
68	0xbdfcee0e	-0.12350093
69	0x3e3a4a24	0.18192345
70	0x3d58ca7f	0.05292749
71	0x3d906a70	0.07051551
72	0x3b91f78f	0.00445456
73	0xbc313296	-0.010815283
74	0xbd3a16cb	-0.045431893
75	0x3e28accb	0.16472165
76	0xbd95d5ad	-0.07316146
77	0x3de1d071	0.11026085
78	0xbe2d3bef	-0.16917394
79	0x3def2483	0.11676886
80	0xbe0306c2	-0.12795547
81	0x3daaaaf1	0.08333386
82	0xbda72420	-0.08161187
83	0x3a5bab40	0.0008379705
84	0xbbd00b4d	-0.0063490034
85	0x3dcf9b3c	0.101370305
86	0xbbb5e3fe	-0.0055508604
87	0x3e0c61b1	0.13709141
88	0x3e285a70	0.16440749
89	0xbde6b5bc	-0.11265132
90	0x3d70d0ba	0.058792807
91	0x3e4d11db	0.20026343
92	0xbe1d557b	-0.1536464
93	0xbe51bf56	-0.20483145
94	0xbe11e715	-0.14248307
95	0x3d953725	0.072859086
96	0x3d308b65	0.043101687
97	0x3d31b55f	0.04338586
98	0xbc78942c	-0.015172046
99	0x3e3c3109	0.1837808
100	0x3e38b1e3	0.18036608
101	0x3d53e39a	0.05173073
102	0x3dc9f4ef	0.098611705
103	0xbe3a009f	-0.181643
104	0x3e6fbaaf	0.23411058
105	0x3e2ba9d8	0.16764009
106	0xbdbffc11	-0.0937425
107	0xbd075582	-0.03304053
108	0xbe0e012b	-0.13867633
109	0x3e08a654	0.13344699
110	0x3e5cb513	0.2155345
111	0x3d464aba	0.04841111
112	0xbda6bd90	-0.08141625
113	0x3d93ee04	0.07223132
114	0x3df9c6e2	0.12196137
115	0xbe09ae5c	-0.13445419
116	0xbbbb4878	-0.005715426
117	0xbdefbb33	-0.11705627
118	0x3c15b83e	0.009138165
119	0x3beef057	0.0072918343
120	0x3dbeb082	0.0931101
121	0xbdfea3e5	-0.12433604
122	0x3d7eb3db	0.062183242
123	0xbd58e089	-0.05294851
124	0x3dc585ea	0.09644683
125	0x3d046543	0.032323133
126	0x3d551393	0.05202062
127	0x3bd49406	0.0064873723
128	0x3d130090	0.03588921
129	0xbd5388c6	-0.05164411
130	0xbcc846e3	-0.024447864
131	0x3d92d67e	0.071698174
132	0x3e5bf37d	0.21479602
133	0xbd851767	-0.06498604
134	0x3d0b74b3	0.03404684
135	0x3ca07711	0.019588025
136	0xbdd7c668	-0.1053589
137	0xbdc7b3ec	-0.09751114
138	0xbd133d63	-0.035947215
139	0x3de9e3ee	0.11420427
140	0xbd1654f2	-0.036702104
141	0x3d81dd59	0.06341047
142	0x3d8acf8a	0.06777866
143	0xbe004333	-0.12525634
144	0x3d5b985e	0.053612106
145	0xbdbf4e72	-0.09341134
146	0xbe0ba282	-0.1363621
147	0x3bde47e7	0.006783474
148	0xbddb48cd	-0.10707245
149	0x3e080e08	0.13286602
150	0x3e00417f	0.12524985
151	0xbd04e35f	-0.0324434
152	0x3d90f552	0.07078041
153	0xbe50a611	-0.2037585
154	0x3e5dc8c5	0.21658619
155	0xbd0424dc	-0.032261714
156	0xbda8d235	-0.08243219
157	0xbd9610c6	-0.07327418
158	0xbc886e88	-0.016654268
159	0xbd53ac54	-0.051678017
160	0x3e1491a7	0.14508687
161	0x3dd603b5	0.10449926
162	0xba5235e5	-0.0008018895
163	0xbe0f9272	-0.14020708
164	0x3b503641	0.003177062
165	0x3c81045c	0.015749149
166	0x3d350c6c	0.0442013
167	0xbb43698f	-0.0029817556
168	0xbdb10987	-0.08644395
169	0x3c8710ff	0.016487597
170	0x3d850abd	0.06496189
171	0x3dc0a437	0.094063215
172	0x3bf0bdb0	0.0073468313
173	0x3e3a276e	0.18179104
174	0x3c40724a	0.011745999
175	0xbe1849a4	-0.14871842
176	0x3e2c2046	0.16809186
177	0x3ddc8238	0.10767025
178	0x3acff65f	0.0015866271
179	0x3e3bbc29	0.18333496
180	0x3d945e82	0.072445884
181	0x3e1164c8	0.14198601
182	0x3e2a9a25	0.16660364
183	0x3d9c0edb	0.07620021
184	0x3dc3bea8	0.09557849
185	0xbd95138c	-0.07279119
186	0x3e2d9879	0.16952695
187	0x3e56fa86	0.20994005
188	0x3dca5a46	0.098804995
189	0xbda5ae1c	-0.08089849
190	0xbd16fa38	-0.03685972
191	0x3da693e6	0.08133678
192	0xbe0a13e9	-0.13484158
193	0xbd6d6742	-0.057959802
194	0xbe45f671	-0.19332291
195	0x3dc9020d	0.09814844
196	0xbb593a6f	-0.0033146401
197	0x3e1378d7	0.14401565
198	0xbe33dbb2	-0.17564276
199	0x3c9b9ff1	0.018997164
200	0x3dc1d318	0.09464091
201	0xbc6eaa90	-0.014567032
202	0xbd14543b	-0.03621314
203	0xbe1bc4f9	-0.15211858
204	0xbe0484ab	-0.12941234
205	0x3e27e441	0.16395666
206	0x3e46868a	0.1938726
207	0xbbc42d00	-0.0059868097
208	0xbd42fd4a	-0.047604837
209	0x3e1afc8b	0.151354
210	0x3d920cf8	0.0713138
211	0x3db39912	0.0876943
212	0xbe402da3	-0.18767409
213	0xbe1f7476	-0.1557177
214	0xbc7e25b8	-0.015511923
215	0xbe542b30	-0.207196
216	0x3dfa4c2d	0.122215606
217	0x3d269893	0.04067285
218	0xbe01857e	-0.1264858
219	0xbddb5962	-0.10710408
220	0x3cb25bb2	0.02177224
221	0xbe2aa81f	-0.16665696
222	0x3de4301e	0.1114199
223	0x3d0dcd2a	0.034619488
224	0x3e3292e7	0.17438851
225	0x3e4beaf0	0.1991384
226	0x3d1006a1	0.03516257
227	0xbe1991c7	-0.14997016
228	0xbd50ce2e	-0.05097788
229	0xbe804398	-0.2505157
230	0xbe1fcc85	-0.15605362
231	0xbe1740a7	-0.14770757
232	0x3da9ae86	0.08285241
233	0x3c3e623e	0.011620102
234	0xbe3c26b4	-0.18374139
235	0xbe71f079	-0.2362689
236	0x3c862fb5	0.01638017
237	0x3e9953b6	0.2994668
238	0x3bb75aee	0.0055955565
239	0xbd7818db	-0.06057058
240	0xbe086f6e	-0.13323757
241	0x3e2177b1	0.15768315
242	0xbe071f02	-0.13195422
243	0x3d913950	0.070910096
244	0xbcb4daf6	-0.022077065
245	0x3d413554	0.04717
246	0x3cdd8367	0.027040197
247	0xbe201fbd	-0.15637107
248	0xbe1da897	-0.15396343
249	0xbdf9b38c	-0.12192449
250	0x3bcfa696	0.0063369973
251	0xbe8f5617	-0.2799537
252	0xbde2b636	-0.1106991
253	0xbe0e8a9a	-0.1392006
254	0xbe04cc3c	-0.12968534
255	0xbdc7a470	-0.09748161

l5.bias f4 [32]
0	0x3e682b91	0.2267287
1	0x3e844f0c	0.25841558
2	0x3d36160a	0.04445461
3	0xbda1c80e	-0.078994855
4	0x3e68065b	0.22658674
5	0x3dfff355	0.12497584
6	0xbe4b0c1e	-0.19828841
7	0x3d382897	0.044960584
8	0xbe303093	-0.1720603
9	0xbd91d1a7	-0.07120066
10	0xbe2b01e5	-0.16699941
11	0xbdd80f93	-0.105498455
12	0xbe2a3b47	-0.16624175
13	0x3e0496dd	0.12948175
14	0x3e3f841b	0.18702738
15	0x3d04bab0	0.0324046
16	0x3e05b063	0.13055567
17	0x3d7635e9	0.060110006
18	0x3e3d8c20	0.18510485
19	0x3d71b0c5	0.05900647
20	0xbdc3329d	-0.09531138
21	0x3ea5330f	0.32265517
22	0x3e8679b6	0.26264733
23	0x3d143c30	0.03619021
24	0x3d47e881	0.048805717
25	0xbde26a4f	-0.11055433
26	0x3de451da	0.111484244
27	0x3d9b62ce	0.07587205
28	0xbdd7d346	-0.10538344
29	0x3e409610	0.18807244
30	0xbc1ee063	-0.009697053
31	0x3dbb7712	0.0915357

l6.weight f4 [32, 32]
0	0xbe357932	-0.17722014
1	0xbe5a5c9d	-0.21324392
2	0x3e645293	0.22297125
3	0xbcf53eb6	-0.02993713
4	0x3da04ff2	0.07827748
5	0x3dd653e3	0.10465219
6	0xbde73c28	-0.11290771
7	0xbdc916b7	-0.09818786
8	0x3d44436f	0.047915872
9	0x3e690153	0.22754411
10	0x3c54c6fa	0.012986893
11	0xbe3036be	-0.17208382
12	0xbcce80de	-0.025207933
13	0x3dedf18c	0.11618337
14	0xbe00f224	-0.1259237
15	0x3dafcf34	0.08584443
16	0x3c86239d	0.016374404
17	0xbd6cbbb7	-0.057796206
18	0xbdeab7cf	-0.1146084
19	0x3c4625d5	0.012093981
20	0x3e0cf20d	0.1376421
21	0x3d94f077	0.072724275
22	0xbd5d35b2	-0.054006286
23	0xbd958f06	-0.0730267
24	0xbcc2e4ff	-0.023790834
25	0x3dd65e36	0.10467188
26	0xbc870f3e	-0.01648676
27	0x3e2a3aae	0.16623947
28	0xbde078cd	-0.10960541
29	0x3daee562	0.08539845
30	0xbe29d702	-0.16585925
31	0x3de699f6	0.112598345
32	0x3df4db62	0.119559065
33	0xbcd267dd	-0.025684291
34	0x3d7808e6	0.06055536
35	0xbe730624	-0.23732811
36	0xbe292dd8	-0.16521394
37	0x3d5bd9fe	0.05367469
38	0xbe66569e	-0.2249398
39	0x3d3ccc6f	0.0460934
40	0x3c0584e3	0.008149358
41	0x3de43475	0.11142818
42	0x3e25bb02	0.16184619
43	0xbdbe0ee2	-0.092801824
44	0xbe0a54ea	-0.13508955
45	0xbd579308	-0.052630454
46	0x3d98118f	0.07425224
47	0x3dffd24e	0.12491284
48	0xbdd6cafe	-0.104879364
49	0x3d178a35	0.03699704
50	0xbe3baee9	-0.18328442
51	0x3d011984	0.031518474
52	0x3df95d64	0.12176016
53	0x3dddeead	0.108365394
54	0xbd5a975f	-0.053367015
55	0xbe3bf954	-0.1835683
56	0xbe18c8eb	-0.14920394
57	0xbc06f089	-0.008236059
58	0xbe296723	-0.1654325
59	0xbd118c26	-0.035534047
60	0xbdee2a97	-0.11629217
61	0xbd023e40	-0.031797647
62	0x3e356ca8	0.1771723
63	0x3dce1c06	0.10063939
64	0x3e098c04	0.13432318
65	0x3d90b2c1	0.070653446
66	0x3d0f6f0b	0.03501801
67	0xbd9c52c8	-0.07632977
68	0xbe17525e	-0.14777514
69	0xbe335578	-0.17513072
70	0x3d99d519	0.07511348
71	0x3e0e72d7	0.13910995
72	0xbe01597f	-0.12631796
73	0x3d460b4a	0.04835061
74	0x3e041395	0.12898095
75	0xbd80d7eb	-0.06291183
76	0x3e2bdea9	0.16784157
77	0xbe106f27	-0.14104901
78	0x3d659dbc	0.05605863
79	0xbd92ea61	-0.071736105
80	0x3ca1975a	0.01972549
81	0xbdaf3cee	-0.08556543
82	0xbe4a78a1	-0.19772579
83	0x3d11598c	0.03548579
84	0xbe0a0151	-0.13477065
85	0xbdf0f0c1	-0.1176467
86	0xbe164b36	-0.14677128
87	0x3a88628c	0.0010405346
88	0xbe2859dd	-0.1644053
89	0x3d5ad328	0.05342403
90	0xbd15b3aa	-0.036548294
91	0x3ca11b08	0.01966621
92	0xbd913feb	-0.070922695
93	0xbe040a46	-0.12894544
94	0x3ce4247c	0.027849428
95	0xbdae3638	-0.08506435
96	0x3e14a50b	0.14516084
97	0xbd57c7c7	-0.052680757
98	0xbdc7b400	-0.09751129
99	0xbe27263c	-0.16323179
100	0xbcc8819c	-0.024475865
101	0x3dc03da1	0.09386755
102	0xbdad92d9	-0.084752746
103	0xbd24a548	-0.040196687
104	0xbd843c36	-0.06456797
105	0xbd4c3441	-0.04985452
106	0x3ddeeebf	0.10885381
107	0x3d82c847	0.06385856
108	0xbd569440	-0.052387476
109	0x3e62f504	0.22163779
110	0x3d607358	0.0547975
111	0xbda3adf4	-0.07992163
112	0x3bcaf363	0.0061935647
113	0x3df56000	0.11981201
114	0x3e0bf654	0.13668185
115	0xbba7a97d	-0.00511664
116	0x3dd862be	0.105657086
117	0xbd605de3	-0.054777037
118	0x3e3274db	0.1742739
119	0x3e20bed9	0.15697803
120	0x3ddc70b2	0.107636824
121	0xbe5b82c8	-0.21436608
122	0xbd0d21a2	-0.034455903
123	0x3c84e347	0.016221656
124	0xbe2a205b	-0.16613905
125	0x3e565c54	0.20933658
126	0xbd5bab68	-0.053630263
127	0x3dd18e3b	0.102322064
128	0xbdf5f414	-0.12009445
129	0x3dbce481	0.09223271
130	0xbdb17fed	-0.08666978
131	0xbda92066	-0.08258133
132	0x3c855f35	0.01628075
133	0xbd870976	-0.065936014
134	0x3d2c6328	0.04208675
135	0x3e1401ab	0.14453761
136	0xbda70ae8	-0.08156377
137	0xbc6daaf0	-0.014506087
138	0x3e3113af	0.17292665
139	0x3d9690aa	0.07351811
140	0x3db00481	0.08594609
141	0xbd1b0dd5	-0.037854988
142	0xbddc2668	-0.10749513
143	0xbdca222c	-0.09869799
144	0xbd174715	-0.036933023
145	0x3e1ae487	0.15126239
146	0xbe40c81c	-0.18826336
147	0xbd5747c8	-0.05255869
148	0x3d3093de	0.043109767
149	0x3c51a54a	0.012795756
150	0xbe02cf5c	-0.12774414
151	0xba827271	-0.0009952319
152	0x3d69fc63	0.05712546
153	0x3d3f7bc0	0.046748877
154	0xbe021b7e	-0.127058
155	0xbe24d556	-0.16097006
156	0xbe21373b	-0.15743725
157	0xbe34ac28	-0.17643797
158	0xbd9642fc	-0.07336995
159	0x3e233e71	0.15941788
160	0x3ca39f4d	0.019973421
161	0xbd62f1b9	-0.055406306
162	0x3d188994	0.03724058
163	0xbdaa4f56	-0.083159134
164	0xbd8d11af	-0.068881385
165	0xbdd9cf44	-0.10635236
166	0x3e327ffb	0.17431633
167	0xbe29e53c	-0.16591352
168	0xbe3ba996	-0.1832641
169	0xbde04d25	-0.10952214
170	0xbd4c8898	-0.049934953
171	0x3ddda4f5	0.10822479
172	0x3cee205a	0.02906816
173	0x3cd87e3f	0.026427386
174	0xbdb5a6e6	-0.08869724
175	0xbd272ee7	-0.040816214
176	0xbe6384ae	-0.22218582
177	0xbbf7acbe	-0.0075584343
178	0xbd692c3a	-0.056926943
179	0x3e2353e0	0.15949965
180	0xbdea784a	-0.114487246
181	0xbe2fba9d	-0.17161031
182	0xbe642406	-0.22279367
183	0x3d74a17c	0.059724316
184	0xbd3d7178	-0.04625079
185	0x3dc314db	0.09525462
186	0x3dad6c91	0.08467973
187	0x3e333bc1	0.17503263
188	0x3e143880	0.14474678
189	0xbe04da8c	-0.12973994
190	0x3d9c39ef	0.076282375
191	0x3d0f6cfe	0.035016052
192	0x3e74d459	0.23909129
193	0x3eadd28f	0.33949706
194	0x3d22ede7	0.039777663
195	0x3e3472d7	0.17621933
196	0x3cfdf70f	0.031001596
197	0x3d955d4e	0.07293187
198	0xbdd328e9	-0.10310537
199	0x3e24d334	0.16096193
200	0xbc051bbf	-0.008124291
201	0xbe73cad5	-0.23807843
202	0x3dab3a54	0.083607346
203	0x3d5c495b	0.053780895
204	0x3e048668	0.12941897
205	0x3e60a199	0.21936645
206	0x3dddd25a	0.10831137
207	0x3cb550db	0.022133281
208	0xbdaf52b3	-0.085606955
209	0x3dfa7a91	0.12230409
210	0xbcec3bc3	-0.02883709
211	0x3dee648c	0.116402715
212	0xbe32fc85	-0.17479141
213	0x3e370e1b	0.17876475
214	0xbd93c195	-0.07214657
215	0x3d7dc3f9	0.061954472
216	0xbd088f2e	-0.03333967
217	0x3e4007a5	0.18752916
218	0x3e3fedfe	0.1874313
219	0xbd195c8c	-0.037441775
220	0x3ca0cde5	0.019629428
221	0xbdb6785b	-0.08909675
222	0x3cdb1cb0	0.026747078
223	0xbdd07a08	-0.101795256
224	0xbda94e1a	-0.0826685
225	0x3d7f7c76	0.062374555
226	0xbc8caf13	-0.017173326
227	0x3affff69	0.0019531074
228	0xbdfd4a60	-0.123677015
229	0xbd56c07d	-0.052429665
230	0xbdc9acaa	-0.09847386
231	0x3e51907d	0.20465274
232	0xbce0f8b0	-0.027462333
233	0xbdc88a55	-0.0979201
234	0xbc377144	-0.011196438
235	0xbce32fc2	-0.027732734
236	0x3e21000b	0.15722673
237	0xbc69456a	-0.014237741
238	0xbdfbadea	-0.12289031
239	0x3d96d910	0.0736562
240	0xbdc19b01	-0.09453393
241	0x3d959e34	0.073055655
242	0xbd897a43	-0.06712773
243	0xbddc59ad	-0.10759292
244	0xbdb0bcc3	-0.086297534
245	0x3ddbac84	0.10726264
246	0xbcee6bef	-0.029104201
247	0x3dcb2554	0.09919229
248	0xbdbd7fcf	-0.09252893
249	0x3d41414b	0.04718141
250	0x3da2c98f	0.079486005
251	0x3d923299	0.07138557
252	0x3de0a6e8	0.10969335
253	0x3dc96fd0	0.0983578
254	0xbe14c999	-0.14530028
255	0xbdcf42b8	-0.101201475

l6.bias f4 [32]
0	0xbe2b653d	-0.16737838
1	0x3c65751a	0.01400497
2	0x3d81572e	0.06315456
3	0x3e5c2367	0.2149788
4	0xbc03fab9	-0.008055382
5	0x3e152fa4	0.14568955
6	0x3df8bfd1	0.12145961
7	0xbd19ce04	-0.037549987
8	0xbe364939	-0.1780137
9	0x3cbb2fcb	0.022849938
10	0xbe14c270	-0.14527297
11	0xbda14346	-0.078741595
12	0xbe2410c4	-0.1602202
13	0x3be98978	0.0071269833
14	0xbd9f303a	-0.0777287
15	0xbe0fdd69	-0.14049305
16	0xbe4ea003	-0.20178227
17	0x3e08dec8	0.13366234
18	0x3cd512dc	0.02600997
19	0xbcc2af35	-0.023765186
20	0x3e678c91	0.22612216
21	0x3e6a8775	0.22903235
22	0x3e0bfbbf	0.13670252
23	0x3e63e54c	0.22255439
24	0xbe0e81d3	-0.13916712
25	0xbd0324a8	-0.03201738
26	0x3dc7d9c5	0.09758333
27	0x3e0b1c91	0.13585116
28	0x3e722a8c	0.23649043
29	0x3c9c49a9	0.019078093
30	0x3e9f7162	0.31141192
31	0xbcaa5be9	-0.02079578
